src/NN/checkers_nn.pth (torch, 86007 bytes, 5 tensors)

fc1.weight f4 [128, 98]
00000000: 2c07 503d da64 9ebd b401 253d 00f6 be3b
00000010: 46d6 12bd 6421 8d3d 10b5 45bd a8bb fb3c
00000020: 1800 56bc f63d 15bd 68e4 2abc 584c 203d
00000030: a837 b7bd ec8c b33c bb7c 81bd d444 443d
00000040: 2012 01bc 3c73 b33d 6877 bd3d 82af 8cbd
00000050: b0ce fabc e41d b1bc 5ecf 94bd cc5e bcbd
00000060: 5c18 76bd 281d d13c de1c 22bd 0085 3fbb
00000070: de8d 1abd 001f 3eba a8fb bf3c 00c1 68bb
00000080: 5084 96bc 8024 a13d 1e20 56bd c0c5 093d
00000090: daed 0cbd 124c 953d f817 5d3c 4ae7 863d
000000a0: 175b 82bd 8e5f 2cbd 1c28 a63c bba1 97bd
000000b0: 7c27 583d d874 3c3d 89c4 9fbd c2ce c63d
000000c0: 908d a43c f487 9dbd 84f9 b13d f8ff e63c
000000d0: e8b6 0c3c f2c4 af3d a0a6 b9bd dd23 8fbd
000000e0: e294 c53d 60d2 d5bc 9c6b b6bc 0020 4cbb
000000f0: f6d8 c63d 23a5 64bd cedc c2bd 60b0 1cbb
00000100: d48e e9bc 5273 16bd f8bd 413d 7067 cdbc
00000110: 78d7 643d 3f97 8abd e6b2 42bd 809e 083b
00000120: 4034 cabd 64c1 563d 0053 a43d 88c1 0bbd
00000130: 04a9 843d dc5e 9f3d 5873 a3bc 947e 4d3d
00000140: 8cc0 bd3c 0023 1a3a 2cf0 26bd b0ab 113c
00000150: 4876 673d c279 61bd e448 1d3d 78fe 8a3d
00000160: 6cda 9f3c e86c fd3c 46fb 913d e4bf bbbd
00000170: cd4a bbbd be9a cebd 8937 93bd 46aa 913d
00000180: d8de 713d 8a46 83bd 8828 753d 9aa8 90bd
00000190: 165b c23d 901b 30bd f9c1 aabd d01e 623d
000001a0: 2213 3abd 5dd0 68bd 387f 9a3d 8045 0e3a
000001b0: e0d5 a2bb 1cbe c03d 45ec a5bd c6d2 b33d
000001c0: 286d ce3c d070 bd3d 74a1 843d ec20 cebd
000001d0: 4368 a3bd a0c9 d53c 86a5 b0bd c85c ae3d
000001e0: 5d48 91bd c05c d63a 5889 c63d 40f9 01bc
000001f0: b498 843d 499a 90bd 5e6a 96bd 5d09 cebd
00000200: 7e68 943d f1a2 51bd cc53 7f3d c8f5 793c
00000210: c4b6 86bd fcc1 bfbc 28a9 35bc 574e 99bd
00000220: 70c2 fbbb dd74 52bd 98cd 6d3d e0b9 903b
00000230: b866 d93c a8f8 e73c 751e 3bbd d80b 5fbd
00000240: 801b 8d3a d678 b13d 0467 f2bc 1889 663c
00000250: 88b8 8c3d 4883 003d 06ca 75bd 508f 60bc
00000260: fe21 81bd 9ea4 803d 152b 35bd 7ddd bcbd
00000270: 20a8 bbbb 1926 96bd 4e96 08bd b98f 21bd
00000280: 4080 453d c0e4 be3c f6d6 8d3d 4c3d 75bd
00000290: ad32 98bd b643 adbd f034 2cbd bcf7 3b3d
000002a0: 9827 ffbc f0ef 66bc 180a 1f3c c1bb 5ebd
000002b0: 327d cabd 38e7 5e3c c4d3 10bd 0837 e5bc
000002c0: a47e c23d bc5e af3c 10f8 eb3c 3fe7 61bd
000002d0: 01ef c6bd 3407 903d 806b 4c3c 0c35 9e3d
000002e0: b420 473d 941e 143d 60dc d3bb ca2e cabd
000002f0: 0093 11bd 63a2 c9bd 3d34 28bd 16bf ccbd
00000300: 36b5 9dbd 986b 343d 3e5e 933d fe06 08bd
00000310: d8e8 653c 712e 48bd 6a43 10bd d08e 903d
00000320: 60db 3dbc 608b aa3b aacc 8d3d e516 81bd
00000330: 3068 cd3c 6013 7cbc b667 be3d 0025 e7ba
00000340: 2cb5 273d 7025 f83b b80e 0c3c 08fa a0bc
00000350: e802 c43d 1014 88bd e143 96bd ca5a bf3d
00000360: cc93 853d 0a66 b93d 7044 863c 4896 ad3d
00000370: 1401 013d 00d7 57bc c6d6 41bd 404f fc3a
00000380: aa44 06bd f893 db3c eea1 95bd accf 95bc
00000390: 00bf dbbb 28b0 563d 4adb bb3d 0022 bebb
000003a0: e8d9 753d 5e32 04bd e274 bf3d 2049 8f3d
000003b0: 047f 7b3d 0073 d0bb 4adb 87bd 5ca5 a0bc
000003c0: d018 2c3d e2e0 1fbd 9cb6 b3bc 1855 2c3d
000003d0: e2ab a13d c6e0 b2bd 017d 4ebd 109b 1f3c
000003e0: 3866 6d3d 74b0 b5bd e001 053c d08f 73bc
000003f0: e4a4 81bc a0f6 883c 8462 6bbd 0426 3ebd
0.05078809 -0.0773408 0.040284827 0.0058276653 -0.03584888 0.068911344 -0.048268378 0.03072913
-0.013061546 -0.036436044 -0.010430433 0.039135307 -0.089461625 0.021917783 -0.063226186 0.047917202
-0.0078778565 0.087622136 0.092512906 -0.06869413 -0.030616134 -0.021620698 -0.07266115 -0.091977686
-0.060081825 0.025526598 -0.03957831 -0.0029223561 -0.03773295 -0.0007252544 0.023435429 -0.0035515428
-0.018373638 0.0786829 -0.052276723 0.033635855 -0.03440652 0.072899 0.013494484 0.06587084
-0.0636503 -0.042083316 0.020282798 -0.074038945 0.05277203 0.04600987 -0.07801158 0.09707405
0.020087034 -0.076919466 0.086901695 0.028198227 0.00858853 0.08582486 -0.09064984 -0.06989262
0.09647538 -0.026101291 -0.022268109 -0.0031147003 0.09709351 -0.05582155 -0.095147714 -0.0023908839
-0.028510489 -0.03673107 0.04730031 -0.025073737 0.05586955 -0.06767129 -0.047533892 0.0020846426
-0.09873247 0.052430525 0.080236435 -0.034120113 0.0647755 0.07781765 -0.019952461 0.050169542
0.023163103 0.0005879849 -0.04075639 0.008891031 0.056509286 -0.055047758 0.038399592 0.06786817
0.019513331 0.03093572 0.07128005 -0.091674596 -0.091451265 -0.100881085 -0.07188327 0.07112555
0.05905041 -0.06409939 0.059853107 -0.07063408 0.094900295 -0.042995036 -0.083377786 0.055205166
-0.045428403 -0.056839336 0.07543796 0.00054272264 -0.0049693435 0.094112605 -0.081017055 0.08780436
0.025198534 0.09250033 0.06476107 -0.10064873 -0.07978871 0.026097119 -0.08625321 0.0851379
-0.0709388 0.0016354546 0.09694165 -0.007932961 0.06474438 -0.070606776 -0.07344507 -0.1006038
0.07246493 -0.051180784 0.062335774 0.015256353 -0.065778285 -0.023407929 -0.011087693 -0.07485645
-0.007683091 -0.05138098 0.058057398 0.0044166893 0.026538238 0.02831681 -0.045683343 -0.054454654
0.0010765642 0.08665626 -0.029590137 0.014070772 0.06871134 0.0313752 -0.060007118 -0.013706043
-0.063053116 0.06281398 -0.04423054 -0.09221933 -0.005726829 -0.07331485 -0.033346467 -0.039443705
0.04821801 0.023302436 0.06925766 -0.05987291 -0.07431541 -0.084601805 -0.042042673 0.045890555
-0.03114681 -0.0140952915 0.009706996 -0.054378275 -0.0988716 0.0136049315 -0.035358205 -0.027980343
0.09496811 0.021407478 0.028804809 -0.055152174 -0.09713555 0.07032624 0.012476802 0.07724962
0.048615173 0.036161974 -0.0064654797 -0.098722056 -0.03554058 -0.09845426 -0.041065443 -0.09997384
-0.07700579 0.044047922 0.0719571 -0.033209793 0.014032565 -0.048872415 -0.03522054 0.07058489
-0.011587948 0.005204603 0.06923802 -0.06303195 0.025074095 -0.015385479 0.09297125 -0.0017634928
0.040944263 0.0075728223 0.008548431 -0.019650474 0.09570867 -0.066444516 -0.073371656 0.093434885
0.06522331 0.090526655 0.016390055 0.084759295 0.03149517 -0.013173819 -0.047323965 0.0019249693
-0.032780327 0.026803955 -0.07306276 -0.018287502 -0.0067061186 0.05241409 0.091726854 -0.005802393
0.060022265 -0.032274596 0.093484655 0.06996369 0.06140043 -0.0063613653 -0.06633623 -0.0196101
0.04201585 -0.039032824 -0.02193766 0.04207334 0.07894112 -0.087342784 -0.05041218 0.00974156
0.05795881 -0.088715464 0.008118123 -0.014865831 -0.015825696 0.016719162 -0.057467 -0.046422973

fc1.bias f4 [128]
00000000: 4817 c73c b41f 333d 3198 6bbd a2b0 8b3d
00000010: 4035 47bd 7181 b3bd e4f8 8abc 5408 94bc
00000020: 2cbb 183d f846 e0bc 34bd 453d 2c63 403d
00000030: 355f 85bd 46cd 55bd 8871 003d 5005 83bd
00000040: 5049 203d 217e 54bd a4d3 c33d 24c9 8dbd
00000050: ece1 f1bc 3c9e 233d 60e6 5cbc 0266 8ebd
00000060: dc27 4c3d a4e2 903d 2dd4 bcbd 54f9 c5bd
00000070: 8c01 053d c001 173d 2041 853b f6c0 bfbd
00000080: d47d 93bc dc37 4c3d e669 37bd bc07 cc3d
00000090: 7984 c6bd d61b 8fbd 6ce0 9fbd d076 aebc
000000a0: fc96 5b3d 024e 843d a825 8d3c 9a49 c8bd
000000b0: 20d5 cabc 1240 afbd 20a9 d63b cc6b 0d3d
000000c0: 85f9 b0bd 8c97 a63c 5881 0ebc d075 7b3d
000000d0: 7e02 1bbd befd 8dbd fa2b 84bd 3a90 c63d
000000e0: 20ff d0bb 5e61 923d 98b1 c6bc 6ca4 d0bc
000000f0: a9b5 37bd 421c ae3d 78c6 a63d e8dc c8bc
00000100: 536f 3ebd c371 bebd 78a1 ba3d 31d7 3fbd
00000110: 186a d23c c42a 81bd 106b d3bc 441b 4e3d
00000120: a62e 95bd c8fd 46bc 7ca5 583d 5a3b 863d
00000130: b879 bb3d be4b a6bd 31ae c8bd 6cae 643d
00000140: 2e82 13bd 60fa c53c 8859 593d d842 683d
00000150: 8095 ea3a 45fd a7bd 9c3a 5b3d c406 b8bc
00000160: 68c0 a83d 0d2e 41bd 2cf8 973d 00cd 1b3c
00000170: fc48 c7bd a4c0 8d3d 60ac e03c 34b0 8d3c
00000180: 7cbe 88bc e306 97bd a8c2 d43c 72f9 b1bd
00000190: 6027 0cbb 803d 4b3b c3a7 3bbd 10f3 dfbc
000001a0: a8f3 103d 64f5 4a3d a5c4 63bd 7eda af3d
000001b0: 53a8 ccbd f58e acbd ff5d 5ebd 7c0b 383d
000001c0: 7a8e 07bd 84cf aa3c f8ac 283d edd5 90bd
000001d0: 2449 b43d 56af 963d 5c28 b13c a59c a9bd
000001e0: fe44 b13d 786c 39bd f4d9 c8bd 98ec f33c
000001f0: a627 983d 93c5 41bd c8d8 8dbd e032 673d
0.024303094 0.043731406 -0.057518188 0.068207994 -0.048634768 -0.08764923 -0.016964383 -0.018070377
0.037287876 -0.02737759 0.04827614 0.046969578 -0.065123 -0.052197717 0.03135827 -0.06397498
0.039132416 -0.0518781 0.095618516 -0.0692313 -0.029526673 0.039945826 -0.01348266 -0.0695305
0.0498427 0.07074478 -0.09220157 -0.09666696 0.03247218 0.036866903 0.0040666014 -0.09362976
-0.018004335 0.04985796 -0.044778727 0.09962413 -0.09693236 -0.06987731 -0.07806477 -0.021296889
0.053610787 0.06460191 0.01722987 -0.097796634 -0.024759829 -0.08557142 0.006550923 0.03452663
-0.08641342 0.020335935 -0.00869783 0.06139165 -0.037844174 -0.06933163 -0.064537 0.09695478
-0.0063780695 0.071474776 -0.024254605 -0.025469027 -0.04485098 0.085014835 0.08143324 -0.024519399
-0.046492886 -0.09299042 0.09112829 -0.046836082 0.025685355 -0.06306985 -0.025807887 0.05031897
-0.07284288 -0.012145467 0.052892193 0.06554289 0.091540754 -0.081199154 -0.097988494 0.055830404
-0.03601282 0.02416724 0.0530639 0.056704372 0.0017897338 -0.08202604 0.05352269 -0.022464164
0.082398236 -0.047163058 0.07420382 0.009509325 -0.097307175 0.06921509 0.027425945 0.017295934
-0.016692393 -0.073743604 0.025971726 -0.08690156 -0.0021385774 0.0031011999 -0.045814287 -0.02733758
0.03538862 0.04955043 -0.055607457 0.08586596 -0.09993043 -0.084257044 -0.05428886 0.044932827
-0.03309486 0.020850904 0.04118058 -0.07072053 0.08803013 0.073576614 0.02162569 -0.08281831
0.08655737 -0.04526946 -0.09807196 0.029775903 0.07429437 -0.047307562 -0.06926113 0.056445003

fc2.weight f4 [64, 128]
00000000: 901d f4bb e8b6 b6bc 30d2 c73c b0e9 7cbc
00000010: b0f9 783c 088a 5f3c 3fb6 ac3d 4e94 15bd
00000020: 02de dbbc 026c 783d bf90 26bd 78ad 063d
00000030: 88a7 c8bc 90eb e2bc 0044 22bb 70d6 723c
00000040: 323b 7f3d 3c23 803c 02da 68bd 98a6 d3bc
00000050: 9b2a 843d 1df3 26bd d189 a23d 2924 b4bd
00000060: 98e0 8f3c 5e11 263d f2fc b1bd 2267 1fbd
00000070: 9aab 413d c11e 843d 7822 2bbd 1d57 aabd
00000080: b881 20bc 6108 1dbd a516 b4bd 5297 f8bc
00000090: 8e8f a8bd 60ff b8bc 5e82 313d 8a9c 743d
000000a0: 400e 8bbd 48c6 41bd 00bc 3f3b 48a2 283c
000000b0: a009 4ebc 9aa8 5e3d cec3 403d cbe8 8d3d
000000c0: e480 80bd 0ee5 353d 3c27 cf3c 0f88 823d
000000d0: 6713 3fbd c430 973c b587 b4bd 8b18 ab3d
000000e0: 9893 4fbd eeef a8bd 8624 97bd 8e92 3d3d
000000f0: c0b3 56bb 2080 7fbd b8e2 dfbc 0ef8 403d
00000100: 0f81 8e3d 8090 9abc 80c4 c03c 1e1d 273d
00000110: d41e 9fbd 8440 c6bc 66e8 02bd 6c5e 85bd
00000120: ccb7 e0bc 8666 06bd 6fe9 823d f951 30bd
00000130: c036 50bb 5ab9 ecbc e862 023d 9b8a 923d
00000140: 14b1 80bd 2726 a4bd d895 763c cdcb 33bd
00000150: d18d 8d3d b6fb e3bc b4d6 debc b49f 85bd
00000160: 0022 09b9 d820 0cbc 4e23 1bbd 2eaf 7cbd
00000170: 861d 083d 2c8f e53c c012 8bba 35ab 923d
00000180: 02e5 0c3d 92cb 74bd 72b4 433d 80c2 f0bc
00000190: a118 99bd 4a63 383d 5673 5d3d 9626 623d
000001a0: 864d 413d a00e 2dbc 9c70 bdbc 4eaf 2bbd
000001b0: dbb7 9a3d 683e 5ebd c8b4 36bd 60e5 19bc
000001c0: 1644 453d 60f4 603b ef11 8b3d e7e1 8dbd
000001d0: 55ba 46bd 1242 1d3d 737c 913d 5017 6bbc
000001e0: c800 18bc 42ad 313d a04c c83b 1423 f63c
000001f0: 448b d03c d000 bf3c 8c77 a5bc 6218 1c3d
00000200: b5f2 a43d fbb7 913d 618e a5bd 23a7 893d
00000210: 5033 7cbd a0fb 103b 6c11 8abc f6de 083d
00000220: 19f7 943d 3148 b03d cea3 7c3d 966f 2c3d
00000230: 402c f23c 0030 df3a 3054 a7bb 2b02 8c3d
00000240: f0a1 46bd 60cf 7fbc f080 ebbc b0a8 2dbd
00000250: 0861 e33c d2b6 00bd bb10 17bd ae06 273d
00000260: bcce 80bd 3102 ae3d 37e3 8c3d 34ee 83bc
00000270: f88a c2bc 26b1 223d 7453 a0bc a07d 58bc
00000280: b0f3 acbd 72d7 273d a0fd cc3c e209 123d
00000290: ae34 8bbd 5bed 31bd f1aa 9a3d 00b3 77bb
000002a0: 5014 793c e9f3 82bd 73de 85bd c8b5 3ebc
000002b0: 2414 78bd ef41 883d ce7d 783d a146 9b3d
000002c0: b407 02bd 3452 92bd 3062 ec3b 3e05 0ebd
000002d0: e241 283d 787d 72bc c445 a6bc 3b0e 803d
000002e0: 1089 0abd 1ccb 87bc 4fea 8b3d e4d9 bcbc
000002f0: 7107 4fbd b06f ccbc 9d46 993d 5c69 bc3c
00000300: b820 b3bd a090 ebbc f2f7 333d b853 163c
00000310: 00e8 6b39 080b 49bd 4021 f4bb 14bf 9fbc
00000320: a7a7 b33d 70c3 cbbb 6e69 afbd cdd9 33bd
00000330: d722 9d3d f27b 293d b90f 853d cea8 1a3d
00000340: f03d d03b 4a87 78bd 2c85 81bc 9f7c 99bd
00000350: 79bf 84bd 0c47 fb3c ee26 263d 30dd f5bb
00000360: f0ad d53b 46f2 3fbd 5ed3 99bd bd63 833d
00000370: b97e 36bd 2ab1 4a3d c09c 493c 001c 383a
00000380: d901 aa3d 129d 7a3d ba54 fbbc 5ce3 f03c
00000390: 302b e0bb 72f8 b1bd 4856 503c d8f6 73bc
000003a0: dc34 3fbd 7eb3 053d 7fd7 3cbd e211 4e3d
000003b0: db86 9bbd fa70 21bd 1621 8bbd d8c6 39bc
000003c0: 66e6 a9bd e008 183b 20b6 14bb 520b 653d
000003d0: dc9f c93c 10da cfbb 7a82 6f3d b455 c73c
000003e0: 4d29 893d b630 8dbd 635d a93d 2e21 02bd
000003f0: 3669 393d e098 a5bd 0828 10bc 702b c83c
-0.007449813 -0.022304013 0.024392217 -0.015436575 0.015196249 0.013643749 0.08433198 -0.036518387
-0.02683926 0.06064988 -0.040665384 0.032880276 -0.024493948 -0.027700216 -0.002475977 0.014821634
0.062312312 0.015641801 -0.056848533 -0.025836274 0.06453439 -0.040759195 0.07936443 -0.087959595
0.01756315 0.040543906 -0.086908236 -0.038916714 0.047282793 0.06451178 -0.04178092 -0.08317397
-0.009796552 -0.03833807 -0.087933816 -0.030345593 -0.08230506 -0.02258271 0.04333722 0.0597196
-0.06789827 -0.047308236 0.0029256344 0.010292597 -0.012575537 0.05436001 0.047061734 0.06929167
-0.06274584 0.044407897 0.025287263 0.06373607 -0.046649363 0.01845587 -0.088149466 0.083542906
-0.050677866 -0.08248888 -0.07380013 0.046282344 -0.0032760948 -0.06237805 -0.027329788 0.047111563
0.0695821 -0.018867731 0.023531199 0.040799253 -0.07769552 -0.024200685 -0.031959914 -0.0651215
-0.027431391 -0.032812618 0.0639218 -0.043046925 -0.0031770915 -0.028896976 0.031832606 0.07155343
-0.06283775 -0.080150895 0.015050374 -0.04389553 0.06911815 -0.027829986 -0.027201988 -0.065246016
-0.00013078004 -0.008552752 -0.037875466 -0.061690502 0.03323128 0.028022371 -0.0010610446 0.071615614
0.034398086 -0.059764452 0.047779508 -0.02938962 -0.07475401 0.045016564 0.05406507 0.05521258
0.047193073 -0.010562569 -0.023124985 -0.04191523 0.07554599 -0.054258734 -0.044606 -0.009393066
0.048160635 0.0034325346 0.0679053 -0.06927853 -0.048517544 0.038393088 0.07103815 -0.01434882
-0.00927753 0.043378122 0.00611265 0.030046023 0.025457032 0.023315817 -0.020198606 0.03810919
0.08054105 0.071151696 -0.08083797 0.06721332 -0.061572373 0.0022122636 -0.01685401 0.033415757
0.07273693 0.086075194 0.061679654 0.042098604 0.029562116 0.0017027855 -0.0051064715 0.06836351
-0.04849428 -0.015613407 -0.028748006 -0.0423972 0.027756229 -0.03142435 -0.03688119 0.040777855
-0.062894315 0.08496512 0.06879275 -0.016104795 -0.023747906 0.039719723 -0.019571044 -0.013213545
-0.08444917 0.04097695 0.025023282 0.035653956 -0.06797157 -0.04343925 0.07552136 -0.0037795901
0.015202597 -0.063941784 -0.065365694 -0.01164002 -0.060566083 0.06653201 0.06066685 0.07581831
-0.031745628 -0.07144585 0.0072138533 -0.034672968 0.041078456 -0.014800422 -0.020296939 0.06252714
-0.03382212 -0.016576342 0.068318 -0.023053117 -0.050544206 -0.0249556 0.074841715 0.022999458
-0.08746475 -0.028755486 0.04393763 0.009175234 0.00022497773 -0.049082786 -0.007450253 -0.019500293
0.087722115 -0.0062183663 -0.08565031 -0.043908883 0.07672661 0.04137797 0.064971395 0.03775864
0.00635504 -0.060675897 -0.015810572 -0.07494473 -0.06481833 0.030673526 0.04056447 -0.0075031742
0.006520979 -0.04686191 -0.07511018 0.06415508 -0.044554446 0.049485363 0.0123054385 0.00070232153
0.08301134 0.06118495 -0.03068005 0.029405288 -0.006841086 -0.08689965 0.012715884 -0.014890395
-0.04668127 0.03264188 -0.04610395 0.050310023 -0.07594081 -0.039414383 -0.0679342 -0.011338912
-0.08295898 0.002319865 -0.0022691563 0.055919 0.02461236 -0.0063431337 0.05847404 0.024332859
0.066973306 -0.068940565 0.08269765 -0.031769924 0.045266353 -0.08085799 -0.008798607 0.024434775

fc2.bias f4 [64]
00000000: b49d 55bd 2ca7 afbc 30dd 6a3c f9e3 9dbd
00000010: 960e 0e3d e6f7 a6bd 3de1 17bd e07e 19bd
00000020: 801d 0fbc 4a1e 663d 4252 3fbd 373e 9e3d
00000030: 4429 4cbd 3909 823d 6cf4 f83c 802f b13b
00000040: 3189 96bd f250 2b3d b416 4abd f1e0 adbd
00000050: 8981 a9bd d66d 623d ff21 a8bd 4001 fe3b
00000060: 4766 b03d 68c6 05bc 0680 06bd 89f3 8e3d
00000070: f2a5 16bd b825 c3bc ee08 88bd 077d 893d
00000080: a296 51bd a8e2 053c 6b89 8b3d 2060 b9bb
00000090: 1071 88bb 2799 29bd 98f8 8abc e0d4 d33c
000000a0: 30db 0cbc 0bf9 a63d 289e 993c 99b0 9bbd
000000b0: 10b7 e4bb 0607 5a3d 5a16 1ebd ce71 b3bd
000000c0: 7263 0bbd 3ad6 333d 9f17 a73d e7a1 05bd
000000d0: aeda 513d 00b0 13b8 2a2b 07bd e081 183c
000000e0: a1a6 a1bd 58b3 fbbc 1a9b 39bd c4ea f33c
000000f0: 9cc9 cabc 40e2 95bd 03f2 a93d 9744 35bd
-0.05215235 -0.021442018 0.014334962 -0.07709498 0.03468188 -0.081527516 -0.03708004 -0.037474513
-0.008735061 0.05618123 -0.046709307 0.0772671 -0.04984404 0.06349415 0.030389987 0.005407274
-0.07350386 0.041825242 -0.049338058 -0.0849017 -0.0827666 0.05528053 -0.08209609 0.007751614
0.08613258 -0.0081649795 -0.032836936 0.069800444 -0.03677935 -0.023821697 -0.06642328 0.067133
-0.051169045 0.008171715 0.0681332 -0.005657211 -0.0041638687 -0.041405823 -0.016964242 0.025858343
-0.00859718 0.0815297 0.018752173 -0.07602043 -0.0069798306 0.053229354 -0.038595535 -0.08761941
-0.034030385 0.043905474 0.08158802 -0.032625105 0.05123394 -3.5211444e-05 -0.03300015 0.009308308
-0.0789311 -0.030725166 -0.045313932 0.02977503 -0.024754338 -0.073185444 0.08298113 -0.044254865

fc3.weight f4 [1, 32]
00000000: d05f 3b3c 890e 043e 7e7f 05be b0bd e0bc
00000010: 53d9 333e 006e 5abd bba7 32be bf51 313e
00000020: f724 a9bd c845 5bbd a2cb e93d 00e4 5239
00000030: 86c5 db3d 21fc 053e 3a78 893d dcd1 bfbd
00000040: c0df 17be 578b cbbd a0d0 853d 0f90 203e
00000050: 0276 f13d 0b15 193e 1858 f03c 11d6 0c3e
00000060: f4fb e1bd dd73 083e 35f9 073e 2f4d 1ebe
00000070: 665a f4bd 7925 15be 002c c6bc 633f 2cbe
0.011436418 0.1289617 -0.13036916 -0.0274342 0.17563371 -0.05332756 -0.17446797 0.1731634
-0.082590036 -0.053533345 0.11415793 0.00020112097 0.10731034 0.13084461 0.067123845 -0.093661994
-0.14831448 -0.09938686 0.06533933 0.15679954 0.11790086 0.14949434 0.029338881 0.13753535
-0.11034384 0.13325448 0.13278659 -0.1545913 -0.11931305 -0.14565076 -0.024190903 -0.16821055
